models/dqnn_trained.pth (torch, 78355 bytes, 7 tensors)

fc1.weight f4 [128, 8]
000000 01 e3 ab be dc 34 f2 bd e6 c0 1f 3e 41 a8 53 3c
       -0.33571628 -0.118264884 0.15600929 0.012918533
000010 9a 09 65 3d 1c 14 d8 bc 7a 75 63 3e 02 6e 0f 3e
       0.05591736 -0.026376776 0.22212783 0.14006808
000020 27 c1 50 be 2d 8b aa 3d b5 ba 84 be 48 cb bb be
       -0.20386182 0.08327327 -0.25923696 -0.3667853
000030 13 04 9a 3e 3b 0c 5c bd 4a 5b 0c be 5e ec 25 3e
       0.30081233 -0.0537226 -0.13706699 0.16203448
000040 60 55 c6 3c 93 2e 8b be 00 2e 20 bb 00 20 33 bd
       0.024210632 -0.2718397 -0.002444148 -0.04373169
000050 40 f5 df bb 87 eb 8e 3e 98 47 0f be a6 bf 00 be
       -0.006834656 0.27914068 -0.13992155 -0.12573108
000060 da bd ab be 00 04 56 3e f4 89 e8 3d 10 3b d0 3d
       -0.33543283 0.20899963 0.113544375 0.10167515
000070 73 6d 84 3e 44 3b ba be 0f 94 11 3e be 51 0b bd
       0.25864753 -0.3637334 0.14216636 -0.034013502
000080 39 27 9b 3e f0 92 11 3e 6d a2 a7 be e3 65 98 be
       0.30303362 0.14216208 -0.3274111 -0.29765233
000090 dd 8f 20 be 40 3e 39 bd d3 3b 40 be db d9 b3 be
       -0.1567988 -0.04522538 -0.18772821 -0.35127148
0000a0 76 64 a8 bc e2 55 73 bd 9b 8d 39 3e ef f9 81 bd
       -0.020555716 -0.059408076 0.18120424 -0.06346499
0000b0 c5 71 aa 3e 1f 7b 82 3e c7 9d fb 3d ec de 13 be
       0.33289924 0.2548456 0.12285953 -0.14440507
0000c0 6f 30 27 3e ad cf b9 bd e9 fa a4 3d 69 b8 26 3d
       0.1632707 -0.09072814 0.0805567 0.04070321
0000d0 c0 5e 97 3e 4c d8 85 be ba ed b3 bd b9 3d a2 bb
       0.29564476 -0.26141584 -0.08785577 -0.0049512056
0000e0 d4 ce 02 3c 89 0e 64 3e d4 c6 0b be f5 20 3b 3e
       0.007983882 0.2227117 -0.13650066 0.18274291
0000f0 f9 ef 2f be d9 0b 1f 3e c8 5b 73 bd 31 15 ce 3d
       -0.17181386 0.15531863 -0.0594137 0.10062636
000100 f0 36 33 3d e3 ae 2a be 58 31 39 be 2c 62 f2 bd
       0.043753564 -0.16668276 -0.1808523 -0.11835131
000110 3e be 0d be 7f e9 c6 3c f3 2b c1 3e 8d b7 8e be
       -0.13842103 0.024281261 0.37728843 -0.27874413
000120 1c 50 93 be 73 98 9e 3e d0 be b1 3e 14 1b ec bd
       -0.28772056 0.30975685 0.3471589 -0.11528602
000130 cd 1e 90 be be 8e 24 bd 69 4c a0 be 51 e6 b7 3e
       -0.281485 -0.040175192 -0.31308296 0.35917905
000140 bf ae 73 3e 7b f8 ab 3b 37 6f 83 be a5 39 ce bd
       0.23797129 0.005248127 -0.25670788 -0.100695886
000150 eb bd 10 3e 30 0f 37 be 37 dc c6 bd 89 92 80 3e
       0.14134948 -0.17876887 -0.097099714 0.25111797
000160 e4 09 b7 be 44 f1 63 be 47 95 9f 3e 0f 45 99 bd
       -0.35749733 -0.22260004 0.31168577 -0.07483875
000170 70 12 8c 3b 2b 0e 34 3d b3 2a 11 3e bd 77 40 be
       0.004274659 0.043958824 0.14176445 -0.18795677
000180 79 8d ef 3d 1c b3 48 3b 10 6b 9c 3e d8 3f c7 be
       0.11696906 0.0030624336 0.30550432 -0.38915896
000190 a4 cf 88 3e b9 c9 b1 3d 39 93 68 be 7f ab 90 3e
       0.26720917 0.08681054 -0.22712411 0.2825584
0001a0 e0 2b 61 3e fa 4c 16 be d1 a3 a9 be fe 82 db 3c
       0.21989393 -0.14677802 -0.33132794 0.02679586
0001b0 cf 04 10 3e 63 f9 a3 be e5 cd 47 3d af 5c f9 3d
       0.14064334 -0.32026204 0.04878034 0.12175881
0001c0 76 d8 3c 3e 0f 2f 45 be 31 47 a5 be c5 32 63 be
       0.18441948 -0.19256233 -0.32280877 -0.22187336
0001d0 f8 af 17 bd a0 d4 28 bd fc 90 8b be ea 26 95 be
       -0.03703305 -0.0412184 -0.27259052 -0.29131252
0001e0 71 27 b6 3e d5 68 d8 3c d9 57 86 3d c8 90 dd be
       0.35576966 0.026417175 0.06559724 -0.43274522
0001f0 01 85 66 3b 8f 65 c0 3e 87 1e 0f be f0 0e 81 3e
       0.0035174491 0.37577483 -0.13976489 0.2520671
000200 91 9c a7 be 8b fa b5 3e 1a ff 8a bd 53 47 99 3d
       -0.32736638 0.35542712 -0.06786938 0.07484307
000210 50 41 0a be be 4e 7f be 79 ce 0f be f4 42 c4 bd
       -0.13501477 -0.24932382 -0.14043607 -0.09583083
000220 96 6f 94 3e 02 a5 92 3e 30 34 a0 3d 74 7e 38 be
       0.28991383 0.28641516 0.07822454 -0.18016988
000230 8b a4 59 3e b8 95 68 3d 7f 87 3c be f1 69 d4 3d
       0.21254174 0.056783408 -0.18411063 0.10371769
000240 60 bf 99 be 40 3c 7a be 2a 84 95 be e0 52 a6 3d
       -0.3002882 -0.24437046 -0.29202396 0.08121276
000250 7b 46 a8 3e 34 20 c1 3d eb a3 39 be da 64 e8 bd
       0.32866272 0.094299704 -0.18128936 -0.11347361
000260 04 f3 b9 bd 4c 46 79 be 9a d8 76 3e cd de 38 be
       -0.09079555 -0.24343222 0.24106064 -0.18053742
000270 d5 cf f5 3b 04 8e b0 be 84 35 48 bd 29 59 c8 be
       0.007501582 -0.3448335 -0.04887916 -0.39130524
000280 b4 22 1b be d4 46 33 3e 86 22 5a 3e 72 fc 4a 3e
       -0.15149957 0.17507488 0.21302232 0.19822863
000290 66 a3 ad bd 9c 82 94 3c 80 e2 d9 3d 00 03 8f be
       -0.084784314 0.018128686 0.106389046 -0.27931976
0002a0 69 9a a7 3e 9a ec 87 be b9 19 65 be 6e b2 59 3e
       0.32734993 -0.265477 -0.22373094 0.21259472
0002b0 c6 68 95 be 82 cd 49 3e 39 dc 9d be 79 77 12 be
       -0.29181498 0.19707301 -0.3083208 -0.14303388
0002c0 0f 29 d5 be 95 e8 a9 be 31 ac 60 3e e0 7d 37 bd
       -0.41632888 -0.33185259 0.21940686 -0.044797778
0002d0 03 0d 73 3c e4 dd 4f 3d c8 98 ff bd e6 cd 0d be
       0.014834645 0.05074872 -0.124803126 -0.13848075
0002e0 49 c3 51 be 6d 24 79 bd 8e 58 44 be 55 5e 05 3e
       -0.20484652 -0.060825754 -0.19174406 0.13024266
0002f0 91 48 7d 3e 96 3f 57 3e f0 94 5e be 37 56 5c 3e
       0.24734713 0.2102035 -0.21736503 0.21517263
000300 49 24 9a be a1 64 e2 3d 32 de 0c bd 47 f3 4a be
       -0.30105808 0.1105435 -0.03439159 -0.19819365
000310 90 f5 9e 3e ee f2 b6 be d0 22 66 3e 7f 99 8c be
       0.31046724 -0.35732216 0.22474217 -0.27460858
000320 4e fa 42 be be 89 d8 3d b2 7f 65 3e 45 9c 32 3e
       -0.19040796 0.10573147 0.22411993 0.17442425
000330 a9 65 9c be ad 19 88 3e fc 3c ba 3e 45 22 ed 3c
       -0.3054631 0.2658209 0.36374652 0.028947005
000340 b7 ba 14 3e c6 66 5e 3e 53 8c e7 bc e9 8d 68 3e
       0.14524351 0.21718892 -0.028265154 0.22710384
000350 f5 b8 64 3e e7 aa 6a be dd 4a e5 3c fe 07 12 bd
       0.2233618 -0.22916757 0.0279898 -0.035652153
000360 ed e4 32 be 28 3e b8 3d 54 20 21 3e db f7 a0 3e
       -0.17470141 0.0899623 0.15734988 0.314391
000370 6d 7b 59 bd 4a 12 b0 be 1b d6 ce 3d ce dd 28 be
       -0.053096224 -0.34388953 0.10099431 -0.16490862
000380 90 4e b6 3e 4a 7e fd 3d 1c 25 63 3d b2 40 c1 bc
       0.35606813 0.12377603 0.055455312 -0.02359042
000390 39 8e 65 be 7c 7d be be 46 ae 9b be 1b a5 b2 3e
       -0.22417535 -0.37205112 -0.30406398 0.3489159
0003a0 b9 bb e1 bd 1b 34 ab be 05 ff 9a be 6e e7 7b bd
       -0.110221334 -0.3343819 -0.3027269 -0.061500005
0003b0 7e e2 2f 3e f0 ee 82 3e e9 d0 92 3e 64 8a 10 3e
       0.17176244 0.2557292 0.2867501 0.14115292
0003c0 ae af 8c 3e 47 31 9e 3e 7a 79 09 be b9 eb 15 be
       0.27477783 0.3089697 -0.13425246 -0.14640702
0003d0 b2 1f 2e be 79 4c 2a 3d 9e d4 a2 be 73 87 ee bd
       -0.17004278 0.041576836 -0.3180284 -0.11646929
0003e0 6a 8d 36 be b0 eb 08 bd 00 1b aa be c0 31 94 bc
       -0.17827383 -0.033427894 -0.33223724 -0.018090129
0003f0 f0 6d bb bd 32 cb 22 be 56 9b e8 bd 8e 1e 79 be
       -0.09151828 -0.15897825 -0.11357753 -0.24328062

fc1.bias f4 [128]
000000 b5 18 1e 3e 1f 6e 3b 3e ea df d6 bd 86 14 c9 3d
       0.15439112 0.18303727 -0.10491927 0.09818368
000010 1a a6 f8 bd b7 dc 20 be 91 10 80 3e 8e b9 8f 3e
       -0.12141056 -0.15709196 0.2501264 0.28071254
000020 ec 86 17 3e d9 40 81 3d 3a 25 a0 3d d5 6d 93 bd
       0.14797562 0.06311197 0.078196004 -0.07198683
000030 80 b0 cb 3d 37 fa 9d 3e 10 96 60 3d d1 c8 90 be
       0.09945774 0.3085496 0.05483061 -0.2827821
000040 b1 ea 14 3e 21 dd 88 be 0a da 97 be f3 79 b1 3e
       0.14542653 -0.26731208 -0.29658538 0.34663352
000050 1e b0 c3 3d f6 86 49 be 24 70 13 3e 40 de c8 3d
       0.09555076 -0.1968039 0.14398247 0.09808016
000060 c5 20 ca bd de a6 e7 3d 69 ba a7 3d 9f f9 3c bd
       -0.098695315 0.11311124 0.08189852 -0.046136495
000070 57 cd 35 be 2a f2 44 be 69 37 84 3e 1a 77 67 3e
       -0.17754112 -0.19233003 0.25823525 0.22604027
000080 bb dd bb 3d 62 70 19 3e d0 b9 f8 bc 0f b5 cf 3d
       0.09173151 0.14984277 -0.03036204 0.10141956
000090 40 60 ae 3e 89 64 9b be bb 2a 37 3e f6 2e b4 3d
       0.34057808 -0.3035014 0.17887394 0.087980196
0000a0 2f 96 6a be d3 93 af 3d f2 bf 7b 3e fe 39 6d 3e
       -0.22908853 0.08573117 0.2458494 0.23166654
0000b0 f8 c7 97 be 84 2c 8e 3e a6 cb 02 be d4 79 d0 bb
       -0.29644752 0.27768338 -0.12772998 -0.0063621793
0000c0 20 6e 9d be 64 07 2b be 63 dc 81 3e 9c e1 93 bd
       -0.3074808 -0.16702038 0.25363454 -0.07220766
0000d0 22 50 1e 3e de c9 a0 3e 43 54 60 3e 36 36 97 3e
       0.15460256 0.31404012 0.21907143 0.29533547
0000e0 78 6f 2c 3e 68 69 ef 3d cf 44 86 3e 03 e7 05 be
       0.16839397 0.116900265 0.26224372 -0.13076405
0000f0 af 56 1d be 43 50 aa 3e be a4 02 be 2f 24 af be
       -0.15365098 0.3326436 -0.12758157 -0.34207293
000100 22 31 e7 3d c2 a6 3e bd a3 07 aa be 92 e6 35 be
       0.11288668 -0.04654575 -0.3320895 -0.17763737
000110 a2 d6 47 3d d8 e3 70 bb b2 56 16 be 1c 3b a9 bd
       0.048788674 -0.00367569 -0.14681509 -0.08263227
000120 a6 32 a7 3e 61 e4 9d bd cb 2e 8a 3e 98 f3 77 3c
       0.3265583 -0.077095754 0.26988825 0.015133761
000130 6b 34 3d 3e ab 0f e9 bc 65 64 b5 3e c1 4d b2 be
       0.18477027 -0.028449854 0.35428157 -0.34824947
000140 a8 1f 95 bc 36 7e 91 3e 1a d8 91 be 4e 31 c4 bd
       -0.018203571 0.28416604 -0.28485185 -0.095797166
000150 c3 d6 70 3e 64 40 a4 be fa d6 34 3e 11 4c e3 bd
       0.23519425 -0.32080376 0.17660132 -0.11098493
000160 25 a3 ba 3e 9a 3d 19 3d d3 a7 5e 3e 0c 60 48 3e
       0.36452594 0.037412263 0.21743707 0.19567889
000170 35 a1 43 be 60 7f 5f bc ea a5 88 be 65 9f 20 3e
       -0.19104464 -0.013641208 -0.26689082 0.15685804
000180 d9 75 21 be 87 03 b1 3d f2 ad 70 be c8 30 1b 3e
       -0.15767612 0.08643251 -0.23503855 0.15155327
000190 da 17 93 3d bb 44 8a 3e 27 26 9e 3e 1c c8 12 be
       0.07182284 0.27005562 0.30888483 -0.14334148
0001a0 3a ef 63 3e be 7f 1c 3e 33 a6 29 be 70 bb ae be
       0.22259226 0.15283105 -0.16567306 -0.34127378
0001b0 31 75 0d 3e 28 72 af bd 50 56 a4 be 03 2f 80 3e
       0.13814236 -0.085666955 -0.320971 0.25035867
0001c0 12 8e 18 3d 72 71 48 be 7c f1 26 3e da 41 84 be
       0.037244864 -0.19574526 0.16303056 -0.2583149
0001d0 66 8b 03 3e b2 c8 4b 3e 08 e3 c5 bd 20 f3 43 be
       0.12846145 0.19900778 -0.096624434 -0.19135714
0001e0 49 48 9b be 60 e2 9b 3c be 8b ab 3e 90 1d 7e bd
       -0.30328587 0.019028842 0.33505052 -0.06203991
0001f0 80 ee 34 bb 0d 24 1f 3e ec 3e 65 be f5 5b 15 be
       -0.0027607977 0.15541096 -0.22387284 -0.1458586

fc2.weight f4 [128, 128]
000000 9c af bc 3c 54 da 44 bd 6a bf 38 3d 89 8b 6d bd
       0.023032956 -0.048059776 0.04510442 -0.0579944
000010 87 bb 8b bd c6 5b 7e bd 0e 27 0d bd 2f 66 05 bd
       -0.068228774 -0.06209924 -0.034461074 -0.032568153
000020 3e 26 36 3d ab 89 52 bd 8c b8 a0 3c e8 d7 04 3c
       0.044470064 -0.05140082 0.019619249 0.008108117
000030 c6 19 7c 3d 40 7d cd 3c 3e 67 57 3d 98 44 f2 3c
       0.061548017 0.025084138 0.052588694 0.029573724
000040 40 35 0d 3c d9 18 4a bd e7 2e 00 bd e0 74 70 3c
       0.008618653 -0.049340103 -0.03129473 0.014676303
000050 b5 d5 85 3d 97 3e af 3d 6e f0 8f bd 04 b8 d0 bc
       0.06534902 0.0855686 -0.0702828 -0.02547837
000060 a0 88 a3 3c 67 00 b3 bd e4 88 05 3d 41 3a 77 bd
       0.019962609 -0.08740311 0.032601252 -0.06035829
000070 20 05 64 bc 6e 4e 36 bd e0 f6 a1 bb 58 bf 5e bd
       -0.0139172375 -0.04450839 -0.00494276 -0.0543817
000080 17 5e 52 bd 8c 3f 98 3c 40 25 a4 bd e9 b2 ad bd
       -0.051359262 0.018584989 -0.080149174 -0.0848139
000090 09 c4 90 bd 80 9c c8 ba 9a f1 1f 3d 84 09 af bc
       -0.07068641 -0.001530543 0.03904877 -0.021366842
0000a0 ac 7e 3b bd 48 48 25 bc a4 b6 70 bd 00 ac ed 39
       -0.0457751 -0.010088034 -0.05876793 0.00045332313
0000b0 b9 49 9d 3d 56 1f 8f bd 39 f9 a0 3d 8c 39 c0 3c
       0.07680077 -0.06988399 0.078600354 0.02346494
0000c0 05 93 a9 3d 08 5d 9a bd 41 58 94 3d 4c d5 71 bd
       0.08279995 -0.075372756 0.072433956 -0.059041306
0000d0 18 6a a8 3c f8 0f cb bc 54 58 8a bc 56 35 23 bd
       0.020558402 -0.024787888 -0.016887821 -0.039845787
0000e0 e2 af 71 3d 42 ae 7c bd 68 e3 d0 3c 3a a4 70 bd
       0.059005626 -0.061689623 0.02549906 -0.05875037
0000f0 30 1e b0 bc ac 11 51 bd e3 64 b1 3d d0 fb 61 3c
       -0.02149877 -0.051042244 0.08661821 0.013792947
000100 99 13 85 bd 86 44 45 3d 58 30 95 bc 2a 35 17 3d
       -0.064978786 0.048161052 -0.018211529 0.036915936
000110 e6 c0 6f 3d e6 12 50 3d b0 b4 44 bc d6 03 39 3d
       0.05853357 0.050799273 -0.01200597 0.045169674
000120 30 57 1a 3c 56 5a de bc 80 75 10 3c 08 93 1e 3c
       0.009420201 -0.027142685 0.008817077 0.00967861
000130 3c 11 ed 3c 29 2a 84 3d 10 f9 ab bd 4c 78 6e bd
       0.028938882 0.06453354 -0.08397114 -0.058220193
000140 40 9f 8c bb 01 9a 81 3d 12 12 4b bd a0 08 f7 3b
       -0.004291445 0.06328202 -0.04957778 0.00753887
000150 80 90 f5 3a be c1 4e 3d 72 9d 51 3d cd be a3 3d
       0.0018735081 0.050477736 0.051175542 0.07995377
000160 75 5c ad bd 61 97 81 bd 28 97 ae bc 32 f8 55 3d
       -0.084649004 -0.06327701 -0.021312311 0.05223865
000170 28 92 b0 bc 06 f2 8a bd 68 3a 8a 3c 67 5d aa 3d
       -0.021554068 -0.067844436 0.016873553 0.08318596
000180 00 18 86 bd 3c 7d 33 bd 00 80 76 bd c9 f3 86 bd
       -0.065475464 -0.043820605 -0.060180664 -0.06589467
000190 90 46 a1 bb 48 d5 83 bc ea 44 a3 bd 0c f8 aa bc
       -0.004921742 -0.016092911 -0.07972129 -0.020870231
0001a0 33 57 9f bd 02 ab 29 3d 82 3c 53 bd b4 a9 6c bd
       -0.07780304 0.04142285 -0.051571377 -0.05777903
0001b0 c8 2b 31 bc 62 a2 b2 bd 38 a9 a1 bd aa 84 47 bd
       -0.010813661 -0.08722378 -0.07893604 -0.048710503
0001c0 84 fa ba 3c f1 2c 10 bd 6a f6 59 3d 61 a2 86 3d
       0.022824533 -0.03519911 0.053213514 0.0657394
0001d0 68 df 5f bc 63 ab 3f bd f2 b4 5e bd f7 e6 b4 3d
       -0.013664104 -0.046794306 -0.05437178 0.088331155
0001e0 de e4 9b bd 5e cf 9b bd f7 c0 a4 bd 00 33 22 bd
       -0.07612012 -0.076079115 -0.080446176 -0.03959942
0001f0 04 f7 e5 bc c1 29 15 bd 57 b5 22 bd 82 3e 54 3d
       -0.028071888 -0.036416773 -0.03972372 0.051817425
000200 d7 99 b7 3d 09 67 f6 3d 50 50 f7 bb e2 e4 6f bd
       0.089648895 0.12031371 -0.007547416 -0.05856789
000210 f8 0b 13 3d 04 33 92 3d b5 02 57 3d 99 ff ad 3d
       0.035900086 0.07138637 0.052492816 0.08496017
000220 16 c0 d3 3c 3c ed 13 bd e2 7a 2f 3c ef 81 82 3c
       0.02584843 -0.036114916 0.01071045 0.015931098
000230 71 fc b1 3d 5a 9a b9 3c 15 9c 3b bd a3 dd ad bd
       0.086907275 0.022656608 -0.04580315 -0.084895395
000240 aa 75 a1 bb a1 52 88 bd 3c a2 b2 bd 40 00 24 3d
       -0.0049273567 -0.06656385 -0.0872235 0.0400393
000250 17 d6 a9 3d 11 fc 8d bd c7 a7 58 3d 33 e8 33 bd
       0.082927875 -0.069328435 0.05289438 -0.043922614
000260 5b 98 9d 3d 77 e8 b5 bc 1d 12 3e bd 7e a1 16 be
       0.07695075 -0.022205574 -0.046403993 -0.14710042
000270 cd 6e 30 3d 2a 43 c3 bb 6d 30 d7 3d 73 41 55 bd
       0.043074418 -0.0059589343 0.10507283 -0.05206437
000280 fe 4a a6 3c 8d 9b 45 3b 04 08 b7 bc d2 e8 b8 3d
       0.020299431 0.003015253 -0.02234269 0.09028782
000290 ac 2b 87 3d 54 8b c5 3b 2e 69 7c 3d bf 5c e3 3d
       0.066001266 0.006028572 0.061623745 0.11101674
0002a0 04 54 45 bd a1 f7 b0 3c 54 d9 84 bd 6e 3b 4a 3d
       -0.048175827 0.021602454 -0.064867646 0.049373083
0002b0 97 0d b1 bd 7f 00 88 bd 34 b5 0f bd 39 68 b9 bd
       -0.0864517 -0.066407196 -0.03508492 -0.09053082
0002c0 40 19 ba 3c 63 0a 53 3c 1b 67 67 3d 61 c1 85 3d
       0.022717118 0.012880894 0.056494813 0.06531025
0002d0 95 8c 69 bc 57 03 8b 3d b7 0f 69 3c 11 ca d2 bb
       -0.014254709 0.067877464 0.014224938 -0.0064327796
0002e0 5d 0c 0e 3d 80 97 e3 3d b0 71 c4 3c c4 2c be 3c
       0.03467976 0.11112881 0.023979992 0.023214705
0002f0 5e 6c 00 be 40 f3 b6 bb d2 6e e4 3c 02 ab 01 3d
       -0.12541339 -0.005583197 0.027884874 0.031657226
000300 d1 a5 5a 3d 01 60 be 3c 5a ee 25 bd 90 ae 7b bd
       0.05338079 0.023239138 -0.040510513 -0.061445773
000310 99 be 9a bd 9d bf 36 be 2c 2a 03 3d c1 ba 9e 3d
       -0.07555885 -0.17846532 0.03202264 0.07750464
000320 37 a3 ae 3c a1 d8 c2 bc 57 32 95 bd 3e 00 39 bd
       0.021318061 -0.023784937 -0.07284992 -0.045166247
000330 58 f5 4b ba d0 93 64 3c e0 38 1b 3d f4 3e b2 bc
       -0.00077803945 0.013951257 0.037896037 -0.021758534
000340 f2 59 ac bb af 32 89 3c e6 00 1c 3d 7d 66 81 3d
       -0.0052597458 0.0167478 0.038086794 0.06318376
000350 de 0c 88 3d ab 20 87 bd 0f b4 a3 3d 15 d5 88 bd
       0.06643079 -0.06598028 0.07993328 -0.06681267
000360 af a8 dd 3d 89 f0 88 bd 1c 28 f2 3d e9 5c 60 bd
       0.108231895 -0.066865034 0.118240565 -0.054776106
000370 5a 51 4c be 66 95 1b 3d e5 ee 9e bd bc ad 5c 3d
       -0.19952908 0.037984274 -0.07760409 0.053876624
000380 70 d6 91 3c 0c 57 59 be 88 73 9d bc 4e 75 d1 bc
       0.017802447 -0.21224612 -0.019220129 -0.02556863
000390 d5 43 87 3d 01 99 8a bd 41 04 8d bd b5 dd 49 3d
       0.06604735 -0.067674644 -0.06885577 0.049283702
0003a0 b7 60 e2 bd 7d 4d e6 3c c4 0d 6a bd 96 86 7a 3d
       -0.11053603 0.028113121 -0.057142034 0.061163507
0003b0 5a 72 8a 3d 67 9a ac 3d 30 61 ad 3c 45 57 ce 3d
       0.06760092 0.084278874 0.021164507 0.10075239
0003c0 70 1b a1 3d d6 67 25 3d fc 9f 82 bd 3d 2e bb 3d
       0.078665614 0.04038223 -0.06378171 0.091396786
0003d0 68 c7 8f bd b7 ec cd 3d 45 c2 58 bd b4 28 22 bd
       -0.070204556 0.100549154 -0.052919645 -0.0395896
0003e0 92 70 19 3d a4 69 df bd ca 90 d7 bc 01 ed ae bd
       0.03746087 -0.10908821 -0.026314158 -0.08541299
0003f0 fa 06 10 3d 3d 78 8d bd 30 29 cc 3b 89 7d 19 3d
       0.035162903 -0.06907699 0.006230496 0.037473235

fc2.bias f4 [128]
000000 a0 68 99 bc 82 18 85 3d 73 b3 66 bd 97 6a 22 3d
       -0.018726647 0.06498815 -0.05632348 0.039652433
000010 66 c9 d5 3d a8 78 9c bd 6a 0c 68 bd f3 8e 87 3c
       0.10438804 -0.07640201 -0.056652464 0.016547656
000020 72 af 3a 3d 0f 98 ca 3d 91 00 40 3d 3b d0 98 bd
       0.045577474 0.09892284 0.04687554 -0.07461592
000030 d7 ac 4e bc 15 a9 8c bd 85 ce b3 bd 4a 2e 5d bd
       -0.01261445 -0.06868187 -0.08779625 -0.053999223
000040 65 94 8f 3a 91 5e b1 3d 0d ad 84 3d b3 ce a0 3d
       0.0010954259 0.08660615 0.06478319 0.07851925
000050 1e 04 9b 3d 4a ad 2b 3d de 4e 62 3d 73 60 5e bc
       0.07569145 0.04191331 0.055250995 -0.0135728
000060 94 87 0c 3c 7f fb 1c 3d dd 2e f3 3c db e2 53 bd
       0.008577246 0.038325783 0.029685432 -0.051730018
000070 ee fe 1e bd 2d 67 bd 3c 33 38 9d 3d af b2 1c bd
       -0.03881734 0.023120487 0.07676735 -0.038256343
000080 22 83 b4 bd d7 33 a3 3d d1 d9 a1 bd fe 95 8c 3d
       -0.08814074 0.07968872 -0.07902873 0.06864546
000090 33 99 33 3d 01 41 a4 3d 32 94 8c 3d 91 4a 88 3d
       0.043847274 0.08020211 0.068642035 0.066548474
0000a0 95 d1 0a 3c a7 5c 71 bd 39 29 a4 3b 11 c2 50 bd
       0.00847282 -0.05892625 0.005009797 -0.050966326
0000b0 be 83 c1 3c d5 a0 86 bd c7 0b 91 bd c5 3e 4b 3d
       0.02362239 -0.06573645 -0.070823245 0.04962041
0000c0 54 98 e6 bc 83 8c 8f bc a0 6d b5 3b 0f b4 66 3d
       -0.028148808 -0.017523056 0.00553675 0.05632406
0000d0 80 b5 a3 3a 05 9d a1 3c 01 19 44 3c 5b 20 0f 3d
       0.0012490004 0.019728193 0.011968852 0.034942966
0000e0 ee 48 2c 3c c2 21 3b 3d 99 c2 9b 3d 33 a6 63 3d
       0.010515435 0.04568649 0.07605476 0.05557842
0000f0 2a 83 2d 3d 5c 68 a7 3d e6 16 69 3d b5 30 6e 3c
       0.042361416 0.08174202 0.056906603 0.01453798
000100 3e e0 b4 bd 14 fb 9f bd 14 42 9a bc 3f de cf 3c
       -0.08831833 -0.07811561 -0.018830337 0.02537453
000110 b0 cc 7b bc 99 67 76 bc ef 0e 4d bd bd 3f 10 3d
       -0.0153686255 -0.015039348 -0.05006307 0.035217036
000120 0f ec a9 3c 4a 91 a1 bd 11 07 8d 3b 2c 0f 7f 3d
       0.020742444 -0.0788904 0.004303821 0.06227033
000130 10 a4 26 3b a9 66 67 bc b6 c1 8f 3d 74 21 82 bd
       0.0025427379 -0.014123597 0.07019369 -0.06354037
000140 ef 00 11 3b 35 a3 b4 bd fe 05 b4 bd 16 44 19 bd
       0.00221258 -0.08820192 -0.087902054 -0.037418447
000150 92 dd 2e 3d bc 82 8a bd 14 cd 9e bd db 71 00 bd
       0.042691775 -0.06763217 -0.07753959 -0.03135858
000160 f9 c3 4d bd 7c 4b 01 bd d7 57 fc 3c 61 c0 da 3c
       -0.050235722 -0.031566128 0.030803604 0.026703062
000170 ed da 94 3d a1 1e 70 3d 11 7d 08 bd 0f aa 88 3d
       0.07268319 0.05862296 -0.033322398 0.06673061
000180 f2 c4 08 3d 93 b2 24 3b 57 82 89 3d 22 14 0e 3c
       0.033390947 0.0025130853 0.067143135 0.008671792
000190 85 18 c0 bc c1 63 ff 3c 5e a5 b0 bd 4c f6 9e 3c
       -0.023449192 0.031175496 -0.08625291 0.019404553
0001a0 2f 9e 38 bd b5 78 5c 3c fb 93 8a 3d 02 f4 dd bc
       -0.04507273 0.013456513 0.06766506 -0.027093891
0001b0 46 bc 41 bd 32 a8 a2 3d 7d 14 5e bd cf a3 43 bd
       -0.047298692 0.07942237 -0.054218758 -0.047763642
0001c0 d3 41 96 bd 8e f6 61 3d 16 08 67 3d 64 d6 00 3d
       -0.07336774 0.055166773 0.056404196 0.03145446
0001d0 b5 af 5c 3d 0b a2 38 3d f8 46 b4 3d 00 4f 3c bd
       0.053878505 0.04507641 0.08802599 -0.045973778
0001e0 00 44 4f bc fc d4 2c bd 25 50 8e 3d 09 21 d6 3c
       -0.01265049 -0.042195305 0.0694888 0.0261388
0001f0 14 54 89 3d 6d 7e 0b 3d 07 89 9f 3d 8b b3 b2 3d
       0.0670549 0.034056116 0.07789808 0.08725651

value.weight f4 [1, 128]
000000 60 83 7a bb 93 f7 5e be 89 a6 cf 3d eb 56 13 bc
       -0.0038225278 -0.2177413 0.10139186 -0.008992891
000010 63 4d 35 be f8 e5 99 bb 09 ef 19 3d d1 36 9a bd
       -0.17705302 -0.004696604 0.037581477 -0.07529987
000020 9b e1 22 3d 79 3a bf 3d 5f ea 7d bd d3 87 00 3d
       0.039765935 0.09337325 -0.06199109 0.031379532
000030 34 9c b9 bd 6d 31 ee bc ce 25 d2 bc f0 77 c9 3d
       -0.090629965 -0.029076302 -0.025652792 0.098373294
000040 be da dd bd 1b d1 8d 3d f4 75 c7 3d c7 08 37 be
       -0.108327374 0.06924649 0.09739295 -0.17874442
000050 dc b6 81 bc d8 90 96 bd 92 ad 6a 3d 7c 82 48 bb
       -0.015834264 -0.073518455 0.057294436 -0.0030595353
000060 db 48 b1 3c 7f 31 a5 3d 50 38 49 3d 91 c3 09 3b
       0.021641186 0.08066081 0.04912597 0.0021021108
000070 88 35 f2 3d 1f 27 a8 3d 60 4f 90 bd 7e 58 df bc
       0.118266165 0.08210587 -0.070463896 -0.027263876
000080 ac 1a 3e 3d cf 3a 1e 3d ad 2a cc bc 10 3e db bd
       0.046412155 0.038630303 -0.024922693 -0.10705197
000090 c3 e2 da bd c0 38 9f 3d 85 87 0d bc 3a eb 62 3d
       -0.106877826 0.07774496 -0.008638267 0.05540011
0000a0 37 e3 58 bc 59 0e 47 bd 05 db 21 3d 85 31 83 3d
       -0.013237766 -0.048597667 0.039515514 0.064059295
0000b0 00 53 78 3a 17 66 8c bc 20 a0 1c 3b 6b ed 6f 3c
       0.0009472817 -0.017138524 0.0023899153 0.014644007
0000c0 cc 5f db 3c 3c b1 e6 3d e0 14 d8 3c 00 79 e3 3d
       0.026779078 0.112642735 0.026377141 0.11107063
0000d0 40 22 73 3b a9 f8 2b 3c f4 f6 aa bd ba 4c bc 3d
       0.0037099272 0.010496297 -0.08347884 0.09194322
0000e0 3d 77 6a 3d 30 7f d0 3b a4 03 b3 3d 36 52 d3 bc
       0.05724262 0.006362818 0.08740929 -0.025796037
0000f0 b7 3b b7 bd 87 36 b7 3d 91 3e 9d 3d af c2 fd 3d
       -0.089469366 0.08945947 0.07677949 0.123906486
000100 6e 0b 36 3c ac b2 07 3d 52 fe 1e 3d 22 f8 69 bd
       0.0111111235 0.03312938 0.038816758 -0.057121404
000110 00 34 63 3c 27 04 e9 bc 9f 41 4d bd d0 27 05 3d
       0.013867378 -0.028444363 -0.05011141 0.03250867
000120 5d 9a 60 3c d8 61 35 bd 75 71 2b bd 94 57 dc bd
       0.013708678 -0.044282764 -0.041856248 -0.10758892
000130 bb 9c 92 bc c1 a6 39 3d a0 2e 8b bb 32 8a ec bc
       -0.017897 0.045325045 -0.0042475015 -0.02887449
000140 0e db 38 3d 0f 09 86 3d 8d 36 5c bd d3 c8 80 3d
       0.04513078 0.065446965 -0.05376296 0.06288304
000150 f6 dc 09 3e ae 1e b1 bd 52 03 1b 3d b3 f2 d5 3a
       0.13463196 -0.0864843 0.037844963 0.001632294
000160 8e 03 4f 3d 4f 4e 5f bc 81 01 ab 3d 28 96 f8 3c
       0.0505405 -0.01362951 0.08349896 0.030345038
000170 3b 7d e2 3c fa 46 91 bd 61 c8 a0 bc 1a 4d 66 3d
       0.027647605 -0.07093616 -0.019626798 0.056225874
000180 aa 3a f0 bc a3 b7 5e 3d b1 ae 00 bd 6e 3c 6d bd
       -0.029324848 0.05437435 -0.0314166 -0.05791896
000190 ff 12 8c 3d 8a bd 8d bd d2 cc 13 bd f5 b9 92 3d
       0.06839561 -0.06920917 -0.036084004 0.07164375
0001a0 2d 35 8d 3d 0a 02 a1 3d 5b d4 d3 bd b0 b0 81 3b
       0.06894908 0.07861717 -0.10343238 0.0039578304
0001b0 c1 58 c2 3d bb bf 11 be 48 f9 fc 3c d4 99 9b bd
       0.09489585 -0.14233296 0.030880585 -0.075977
0001c0 7c 46 4c bd f7 59 a5 bd 7c c5 4f 3d 30 fd 9d bd
       -0.049871907 -0.080738 0.050725445 -0.07714307
0001d0 32 c7 d1 bd d1 f7 70 3d d8 98 7e 3d 88 d8 b1 bd
       -0.102430716 0.058830086 0.062157482 -0.08683878
0001e0 fa 9b 7a bd 1e be fc 3c 14 41 43 be cc 27 34 bc
       -0.061183907 0.030852374 -0.19067794 -0.010995816
0001f0 eb 60 21 bc e8 47 70 3d d2 3a 54 bd a2 6e cc bd
       -0.009849767 0.058662325 -0.051813908 -0.09982039

advantage.weight f4 [7, 128]
000000 3b cd 88 bd 72 f7 8c 3d 7a 4e e9 3a f9 13 05 bd
       -0.066797696 0.06883134 0.0017799877 -0.03248975
000010 0e a7 d1 3d 74 42 51 bd fc 4c 92 3d 5d 3c 93 3b
       0.10236941 -0.051088765 0.0714359 0.00449328
000020 92 f5 58 bd f6 bf 15 bd 79 24 5c 3d 1d 95 12 bc
       -0.05296857 -0.03656002 0.05374572 -0.008946684
000030 ae ea b1 3d 59 5f db 3c 60 63 b4 3d c7 ce 8b bd
       0.0868734 0.026778864 0.08808017 -0.06826549
000040 a0 7c 6e bc 55 db 6c 3d ad 37 46 3d ca f6 50 3d
       -0.01455608 0.05782636 0.04839294 0.051016606
000050 a0 43 a0 3c 40 7e 24 bc 5e f0 c2 3c e6 99 2f 3d
       0.019563496 -0.010039866 0.023796257 0.04287138
000060 ea 4f 0e 3e c5 2f 3f 3d c0 9d 9c 3d ce b8 9d bd
       0.13897672 0.046676416 0.07647276 -0.07701264
000070 5b 8e 7a bc a0 6d 3c 3d d1 0a 4c bd 55 7c 84 bd
       -0.015292729 0.046002984 -0.049815003 -0.06469027
000080 4b ce 82 3d 74 21 fa 3b 04 59 a8 3d a5 c1 2f bc
       0.063870035 0.0076333825 0.082201034 -0.010727321
000090 03 51 2a bb 1b 20 8f 3d c4 63 15 3b ad 7f 80 3d
       -0.0025988228 0.069885455 0.002279506 0.06274352
0000a0 3f ac 1c 3d 48 09 b1 bc 34 15 83 3c 46 22 53 bd
       0.038250204 -0.021610871 0.016001321 -0.051546358
0000b0 99 50 a6 bb f9 9f 94 3d c0 f9 79 3c 34 b7 ad 3b
       -0.005075526 0.07257075 0.015257299 0.0053013805
0000c0 ee c7 a4 bb be cb c2 bc 89 0f 93 bd 1a 30 9f bd
       -0.0050287163 -0.023778792 -0.071806975 -0.077728465
0000d0 c0 86 57 bc 38 75 6d 3d 2e 99 5d 3d 43 7a b6 bd
       -0.0131546855 0.057973117 0.05410116 -0.08910038
0000e0 ac 92 8f 3c 88 6b 03 bd 7f dd d1 3c 42 08 61 bd
       0.017525993 -0.03208497 0.025618313 -0.054939516
0000f0 75 79 6f bd 2f 54 12 3c f8 9e 92 3d 7c 6e 21 3d
       -0.05846544 0.008931204 0.07159227 0.039412007
000100 40 f2 6f bd b0 dd 7a bc ba 36 73 bd fc ce 49 bd
       -0.058580637 -0.0153116435 -0.059378363 -0.04926966
000110 8e 48 36 3d f7 58 6e bd b2 fd e7 bc f5 ed aa bd
       0.044502787 -0.058190312 -0.028319214 -0.08346168
000120 29 f7 54 3d 5e 64 70 3d cc 9e 8e bd d6 5c 91 bc
       0.051993523 0.058689468 -0.06963882 -0.017744463
000130 89 87 f8 3c 67 09 c8 bc 1f 67 91 3d ed e5 88 3d
       0.030338066 -0.024418546 0.07099747 0.0668448
000140 bf 6e a4 3c f1 ce 7a bd cd 99 3d bd 31 b0 83 3d
       0.02007234 -0.06123251 -0.046289254 0.0643009
000150 74 3f 1a 3c 84 d8 b8 bc 00 36 92 39 02 a2 72 3d
       0.0094145425 -0.02256418 0.00027887523 0.059236534
000160 bb ec 92 3d c0 6e 9e bd 6c db 74 3d a8 a8 5a 3c
       0.07174059 -0.07735968 0.05977957 0.013345875
000170 a1 9a 9b 3c 02 28 7e bd 92 a1 2a bd d8 b0 97 3d
       0.018994631 -0.062049873 -0.04165799 0.07406777
000180 08 19 97 ba f6 02 5f 3d 7f a2 39 3d bf 83 8f 3d
       -0.0011527846 0.054446183 0.045320984 0.070075504
000190 e2 31 f8 3b f4 4a f7 bc f0 67 9f bd 00 4d d4 3b
       0.007574306 -0.030187108 -0.077834964 0.0064789057
0001a0 69 2d cc bb 6d b6 44 bd b5 56 cb 3b 8c 91 80 3c
       -0.0062309992 -0.048025537 0.0062054046 0.015694402
0001b0 1a 33 46 3d f2 a4 82 bc 0a 69 1c 3d d9 44 bb 3c
       0.048388578 -0.015947793 0.03818611 0.022859978
0001c0 13 b9 db 3b f2 15 51 bd 95 04 10 bd e8 ca 40 bc
       0.006705412 -0.05104632 -0.03516062 -0.011767127
0001d0 96 b6 1a 3e 7b 78 ad 3c f9 bf 2f 3d 70 4f 9f 3d
       0.15108714 0.021175614 0.04290769 0.077788234
0001e0 91 8e 57 bd 46 16 8f 3c a1 72 d2 bc 17 15 5d 3d
       -0.052626196 0.017466675 -0.025689425 0.05397519
0001f0 dc 02 b7 bc 53 66 98 3d d8 4b 47 3d 9e b9 9c 3b
       -0.02234023 0.07441392 0.048656315 0.0047828695
000200 04 a1 b1 bd a8 79 c8 3d d6 f7 dd bc 94 c3 2f bc
       -0.086732894 0.09788829 -0.027095716 -0.010727782
000210 04 e2 09 3d 1a 22 a3 bd 26 d4 f7 3b 3f 07 45 bd
       0.03366281 -0.07965489 0.007563132 -0.048102614
000220 c8 43 28 bc 09 69 5e 3d f7 04 d4 3b 83 c3 80 bd
       -0.010270067 0.054299388 0.0064703184 -0.06287291
000230 88 52 f1 bb e2 05 3a 3d 0c 17 50 bd e1 7f 47 3d
       -0.007364575 0.045415767 -0.05080323 0.04870594
000240 57 e1 13 3d 5f c0 dd bc 25 10 bf bb 17 30 6e bd
       0.036103573 -0.027069269 -0.005830782 -0.05815133
000250 f1 8c 97 3d 12 49 63 3d 8e c9 33 3d e9 26 a1 bd
       0.07399929 0.055489607 0.04389339 -0.0786875
000260 6f e0 ea bc 13 2a 07 bd 4f 79 b1 bc 9d cc 5e bd
       -0.028671471 -0.03299911 -0.02166429 -0.054394353
000270 91 d9 8e bd c4 c2 4a 3c a6 5f 4c 3d af c7 3a 3d
       -0.06975091 0.012375537 0.049895905 0.04560059
000280 d2 ca 75 bd 03 25 b4 3d a4 0c ab 3d d1 f6 f2 3d
       -0.060007878 0.08796122 0.083520204 0.11863483
000290 56 0a 34 3d 1f 10 91 bd 91 65 40 3d 16 21 b8 3b
       0.04395517 -0.07083153 0.04697186 0.0056191785
0002a0 19 be ec bb c9 97 8a bd 16 05 0d bc 46 c8 8c 3c
       -0.00722481 -0.06767232 -0.00860717 0.017185342
0002b0 ee 6c 80 3d cd c3 d3 bc 9e 1a 82 bd d2 f0 af bd
       0.06270777 -0.025850201 -0.06352733 -0.08590855
0002c0 9c 35 6f bc 9d 6b 69 bd 7e 0f 59 3d a4 84 12 bd
       -0.014600184 -0.056987394 0.05299329 -0.035771027
0002d0 68 c4 da bc d5 7d 8a 3d cd 42 c2 3b 60 2a 96 3c
       -0.026704982 0.06762282 0.0059283734 0.018330753
0002e0 b9 c5 cb 3c 34 4f a8 3c a8 06 8a 3d 95 3c 36 3d
       0.024874555 0.02054558 0.06739551 0.04449137
0002f0 bd b8 98 3d 13 42 99 bd 2e ae 2a 3d 56 60 b4 3c
       0.07457111 -0.07483306 0.041670017 0.022018593
000300 43 76 3d 3d e9 01 94 3d e1 c6 88 bd a9 2c 9f bd
       0.04625536 0.07226927 -0.06678558 -0.0777219
000310 80 61 8e 3c ae db 8d bd ac c2 3e 3d 25 be 88 bd
       0.017380476 -0.06926666 0.046572372 -0.06676892
000320 ef 68 b7 bd 7c 13 5c bd 02 e3 4c 3d 9a 93 28 bd
       -0.08955561 -0.05372952 0.05002118 -0.04115639
000330 81 64 65 bd 06 dc c1 bb 19 05 5b bc 30 49 cb bb
       -0.05600405 -0.0059161214 -0.013367915 -0.006203793
000340 fb aa 95 bd 7b 26 ae 3d fe 9e b1 3c e8 59 b9 3c
       -0.073080026 0.08503433 0.021682259 0.022625878
000350 b8 f4 b1 3d ce 83 32 3d 12 d8 0c bd cf 4d 1c 3d
       0.086892545 0.04358273 -0.03438575 0.03816014
000360 9c c0 a3 bc de 3d 3f 3c ec cd ba bc f9 d9 44 3d
       -0.019989304 0.011672465 -0.02280327 0.048059437
000370 50 04 28 bd ac 71 8b 3c 78 1d 88 bd cd a1 87 bc
       -0.041019738 0.017021976 -0.06646246 -0.016556645
000380 2e f5 ab bb 13 9d b3 bc 19 d7 02 bc 83 45 58 3c
       -0.0052477336 -0.021925485 -0.007985854 0.013200167
000390 5d 95 b3 bc 7f 82 b0 bd c9 e0 b4 3d 67 ff 82 3d
       -0.021921808 -0.0861864 0.08831937 0.063963704
0003a0 36 5b 97 3d ce c5 36 bd 44 08 ba 3d 96 34 75 3d
       0.07390444 -0.044622235 0.09083608 0.059864603
0003b0 1d ee 03 3d 73 fd b8 3d 6e 4a 21 bd 7d d2 94 3c
       0.032209504 0.090327166 -0.039377622 0.018166775
0003c0 05 38 aa bd 2d a4 d0 3d 3f 76 40 3d 04 1a ef bc
       -0.08311466 0.10187564 0.04698777 -0.02918721
0003d0 bc 21 4e 3d ed 22 39 3d fe 2e 41 bd f8 b2 4a 3a
       0.05032514 0.045199323 -0.047163956 0.0007732357
0003e0 d0 00 8b bc 8f 96 0f bd 02 1f 22 bd a0 8f 2a 3d
       -0.01696816 -0.035055693 -0.039580353 0.041640878
0003f0 dc d3 5a bd b5 e6 b0 bd 7f 0c 57 bd 90 28 87 3d
       -0.0534247 -0.08637754 -0.05250215 0.065995336

advantage.bias f4 [7]
000000 1b 30 95 bd 37 51 4a 3d 0c 3b 9d bd 99 f4 1a 3d
       -0.07284566 0.04939386 -0.07677278 0.037830923
000010 a6 58 7f bd a8 d3 00 3d a4 46 9b 3d
       -0.0623404 0.03145185 0.07581833
